models/smallcnn_mnist.tflite (tflite, 325536 bytes, 8 tensors)

arith.constant f4 [32]
000000 41 b7 1f bd c3 f2 6b 3c 03 a8 e4 bd 98 69 a3 3c
       -0.038993124 0.014401141 -0.11164858 0.019947812
000010 2b 95 38 bb 7c cb 7f 3c 62 36 fc 3c cc 20 5d bc
       -0.0028165083 0.015612479 0.03078765 -0.013496589
000020 1c d2 b6 bc 9f fd b8 bc 96 87 54 3c 1a 61 25 3c
       -0.022316985 -0.022581873 0.012971779 0.010093952
000030 70 dc 9b bb 1d 75 30 bb 78 66 18 3d 2c 73 4d bd
       -0.004756503 -0.0026925274 0.037207097 -0.050158665
000040 f3 4f 9d bd 94 02 96 bd ed d6 ed 3c 38 c9 74 bd
       -0.07681265 -0.073247105 0.029033149 -0.05976221
000050 e5 6a 7a bc b7 6a ac 3d 0b 75 e3 bd 51 20 b5 bc
       -0.015284275 0.08418792 -0.111063085 -0.022110136
000060 67 70 df bb e9 d8 21 bd 6f d9 c6 bb 69 1a f0 3b
       -0.0068188193 -0.039513502 -0.0060684006 0.007327367
000070 74 1b f0 bd be 50 fa 3b ed e2 10 3c e8 9d 9b bd
       -0.11723986 0.0076390198 0.008843166 -0.075984776

arith.constant1 f4 [32, 3, 3, 3]
000000 db cd c9 bd 6d e6 de bd 1c 38 0e be 9d ef 00 3d
       -0.09853717 -0.10883794 -0.13888592 0.031478513
000010 e3 73 3e 3d 27 43 cc bd d0 27 05 3e 0c 35 05 3e
       0.046497237 -0.09973746 0.13003469 0.13008517
000020 e5 d7 df 3d 9e 03 94 3d 5a a2 fa bc c9 d7 04 3e
       0.109298505 0.072272524 -0.030594993 0.1297294
000030 98 53 28 3d 9c 96 9a 3d 9f 60 3c 3e 06 e3 84 bc
       0.041095346 0.07548258 0.18396233 -0.016221534
000040 ab 25 d2 bc 55 dc d1 3d a7 69 85 bd fd e7 9c 3d
       -0.025652727 0.10247103 -0.06514292 0.07661436
000050 cc 47 4b bd d5 2c 79 3d 4c 6a 18 3b 9a 9b 36 3d
       -0.049629018 0.06083377 0.0023256717 0.044581987
000060 37 ee 88 3d 5f 73 34 3d 05 36 f6 3d fc 97 08 3e
       0.06686061 0.04405534 0.12022022 0.13339227
000070 5f d9 42 3d 8e 4c d4 3d 11 0e 73 bb 85 f7 e6 3d
       0.047570582 0.10366164 -0.0037087242 0.11277679
000080 99 66 ab 3d c4 83 67 3e 10 cc 70 3e 0c 19 0c 3e
       0.08369178 0.22608858 0.23515344 0.1368143
000090 52 1b 8b 3d 6d 87 c4 bd b7 6f e0 bd d7 16 82 3d
       0.0679232 -0.09596143 -0.10958808 0.063520126
0000a0 36 17 33 3d 3c 9c 13 3e 49 34 96 3d b4 66 ca bc
       0.043723308 0.14415067 0.07334191 -0.024707176
0000b0 7a 1d 7a 3d 99 f6 90 be aa c6 fa bd 3b fe 8d be
       0.061063267 -0.2831314 -0.122449234 -0.27733025
0000c0 5b d5 de bd 13 00 4b be bd 76 58 be e1 04 a8 bd
       -0.10880538 -0.19824247 -0.21139045 -0.082040556
0000d0 ae 70 3e be d0 3d 3a bd d1 40 ad 3d 71 91 e9 3d
       -0.18597671 -0.045469105 0.084596284 0.11404694
0000e0 6f 10 8f 3d fc 37 db 3d cd ac 1b bd 97 e5 0c 3e
       0.06985556 0.107040375 -0.038006593 0.13759457
0000f0 d7 45 ef bb 41 7c c0 3d 6f 8e 54 3d ec c1 02 be
       -0.0073020267 0.093986996 0.051893648 -0.12769288
000100 e5 ba 07 3d 9f 5e 7f 3b 35 64 f0 bb e7 c6 2f 3e
       0.03313722 0.003896631 -0.0073361644 0.17165719
000110 9a 5b 7b 3b 56 54 98 3d 6b b1 5a 3d 2a ef ef b9
       0.003835416 0.07437961 0.053391855 -0.00045763823
000120 6d de 25 be 05 73 1b 3d 5c 9a b1 bd dc a3 0d 3e
       -0.1619813 0.037951488 -0.0867202 0.13832039
000130 c4 ed fb bd 3d 33 b6 bd a3 0c 96 3d f7 91 03 3e
       -0.123012096 -0.08896492 0.07326629 0.1284865
000140 43 09 d4 3d 3e c3 84 be c0 2d 84 be e7 e9 f7 bc
       0.10353329 -0.25930208 -0.25816154 -0.0302629
000150 c5 4d 43 be 65 0d 54 be a9 fd 60 be 60 ee 87 bd
       -0.19072635 -0.20708235 -0.21971764 -0.06637263
000160 ac f7 90 bd b5 b8 6c bd 81 7c f2 3b 56 01 82 3d
       -0.0707849 -0.057793338 0.007400096 0.06347911
000170 e0 fe 88 3d d4 ae 96 bd de 02 1d 3d b7 f0 b7 bc
       0.066892385 -0.073575646 0.038332812 -0.022453649
000180 ae 4d b3 bc 6c d1 f7 3b 55 2c e3 3d 2d cb 47 3e
       -0.021887626 0.007562807 0.1109244 0.19511099
000190 99 24 25 3e 8f 6c 00 3e 42 d1 05 3e 1e b0 db 3d
       0.16127242 0.12541412 0.13068107 0.10726951
0001a0 52 1b 3e 3e 6c 0f 2d bd 5b 76 2f 3e 81 00 12 3e
       0.1856511 -0.042251036 0.17134993 0.14258005
0001b0 85 2a 94 bb ca 51 11 3e b4 eb 22 3c 75 4a e2 3d
       -0.0045216703 0.14191356 0.009943891 0.11049358
0001c0 d1 b0 da 3d d1 70 8c bd a0 c2 19 3d 12 cc 52 3d
       0.10678256 -0.068574555 0.037539124 0.051464148
0001d0 12 a1 28 3e 1d 42 f0 3d 48 32 e4 bc 0d 2c 1f bd
       0.16467693 0.1173136 -0.027856007 -0.03886037
0001e0 e0 92 c4 3d 64 94 7f 3d 77 69 16 3e 7b 1c a1 bd
       0.09598327 0.062397376 0.14688669 -0.0786676
0001f0 4f 48 a8 3d 97 b8 01 3e f4 66 de bd 5f 33 85 3c
       0.08216917 0.12668072 -0.108594805 0.016259847
000200 c2 35 de bd 55 8a 8a be ae 8d 85 bd 01 41 33 be
       -0.10850097 -0.27058664 -0.06521164 -0.17505266
000210 16 25 2d be 0b f9 b2 bc 8b 38 4e be 20 29 6d bc
       -0.16908678 -0.021847269 -0.20138757 -0.014475137
000220 6b 3d ba bd d4 7e 59 bc 1e 56 86 be 92 3f 28 be
       -0.09093746 -0.013274867 -0.26237577 -0.164305
000230 d1 0d 7e be 1e bd ed 3c 09 64 9f bd b1 37 f8 bd
       -0.24809958 0.029020842 -0.07782752 -0.12119997
000240 39 4c 83 bd 95 94 26 3d 70 25 93 3d 56 88 81 bd
       -0.06411023 0.040669043 0.07184875 -0.06324832
000250 f7 05 28 3d a5 67 3c bb 55 3c a9 bb d4 82 4b bd
       0.041021314 -0.00287483 -0.005164663 -0.049685314
000260 72 85 d0 bd c1 09 c9 3c 3e 38 af 3d 7d 7f 79 3e
       -0.10181703 0.024540784 0.08555649 0.24365039
000270 57 b6 f0 3d c5 17 6b 3e e9 7b a2 3d ff d9 38 3e
       0.117535286 0.22958286 0.0793379 0.18051909
000280 93 ee 72 3d b4 e2 f1 3c da ca 92 bb cd 0b f5 3b
       0.059309553 0.029527046 -0.004479748 0.0074782134
000290 ed 67 15 3c 58 9e 81 3e b9 6b 25 3e 47 b2 bc 3d
       0.009119016 0.2531612 0.16154374 0.09213691
0002a0 46 3f 22 3e 46 d1 54 3e c0 9a 06 3e 08 ea 50 bd
       0.1584445 0.20782956 0.1314497 -0.05100444
0002b0 b8 49 58 3d 45 46 12 3c 17 1a 03 bd b9 77 3e bd
       0.05280468 0.008927886 -0.032007303 -0.046500895
0002c0 33 48 3b 3d 13 25 8b 3d 4f dc cf 3d 25 f0 f2 3d
       0.04572315 0.06794181 0.101494424 0.1186221
0002d0 b6 20 22 be ec 6a 34 be 12 19 72 be 30 dd 73 bd
       -0.1583279 -0.17618912 -0.23642376 -0.059537113
0002e0 bd b2 81 be 23 93 82 be 94 4f b4 bd 60 3f 32 be
       -0.2533168 -0.2550288 -0.08804241 -0.17406988
0002f0 1e f9 51 be db 29 ef 3d 21 b5 9e bd bf 23 f3 3c
       -0.20505187 0.11677905 -0.07749391 0.029680131
000300 88 3d e5 bb bf 37 06 be 54 9b 54 bd 62 e1 ce be
       -0.0069958605 -0.13107203 -0.051905945 -0.40406328
000310 7c 9b ac be 44 e8 c2 be e4 d5 82 3e e0 2d 48 3d
       -0.33712375 -0.3806783 0.2555381 0.048871875
000320 1e 87 0d 3e e9 78 8a 3d 95 b1 87 bd 1a c6 44 3d
       0.13821074 0.06761343 -0.06625668 0.048040487
000330 b2 1a 25 be 06 7b 31 be f6 dd ef bd 9b 27 99 3e
       -0.16123465 -0.17332086 -0.117122576 0.2991303
000340 4f 58 1b 3e 87 14 83 3e 42 18 19 3d f2 7f 6d 3e
       0.15170406 0.256016 0.03737665 0.23193339
000350 ca b4 30 3e 63 7a 43 bd 31 e7 0e 3e 03 9c 31 3d
       0.17256466 -0.04772414 0.1395538 0.043361675
000360 81 4b cb 3d 23 8d cd bd 3d 67 0b 3e ea 16 28 3d
       0.099265106 -0.10036685 0.13613601 0.041037478
000370 c3 e0 56 be 1d 19 15 be f6 52 54 be 9b 3c 20 bd
       -0.20984177 -0.14560361 -0.20734772 -0.039120298
000380 60 30 6b be 60 27 2b 3e ca ba e9 3d 59 86 83 bd
       -0.22967672 0.16714239 0.1141258 -0.06422109
000390 fd 2d d5 3c df ee a2 bd af b8 b8 bd 26 be b8 3d
       0.026022905 -0.07955717 -0.090196006 0.09020643
0003a0 91 7b 2a 3d 7f 13 ad bc ee 21 7c bd 46 5a 31 3e
       0.04162175 -0.02112746 -0.061555795 0.17319593
0003b0 6a 34 0e 3e 22 d2 91 3c 4b 19 0b 3e 0b 00 0a bd
       0.13887182 0.017800394 0.13583867 -0.033691447
0003c0 1e 8b 13 3e 68 ab 57 bd f4 a9 7a bd 89 f7 8b bd
       0.14408538 -0.0526537 -0.061197236 -0.06834323
0003d0 b9 36 e7 bb 16 b0 5f bd 0e 87 a7 bc f7 04 7a bd
       -0.007056084 -0.054611288 -0.020450141 -0.06103989
0003e0 a1 70 5c 3d 1e 4d f6 bc cb 20 ab bd 52 6d a1 bc
       0.05381835 -0.03006607 -0.08355864 -0.019705448
0003f0 1b a0 00 3e 12 27 cd bd 06 44 09 bd 78 83 a9 bd
       0.12561075 -0.10017218 -0.033512138 -0.08277029

arith.constant5 f4 [128]
000000 3c da 3c 3c 4b a1 16 3c 23 65 64 3c 8a d2 a4 ba
       0.0115266405 0.009193729 0.0139401285 -0.0012574953
000010 ef ed 0b 3c bf 8b 09 bc 9f 7a 68 bb f3 43 bb bb
       0.0085406145 -0.0083951345 -0.0035473478 -0.0057148873
000020 9a 70 a7 39 a6 30 08 b9 15 ca c9 bb 2e 8c 58 bc
       0.00031936617 -0.00012988094 -0.0061581233 -0.013217015
000030 f5 ab c4 bb 17 07 88 bc 18 00 ae bb 6d a5 46 3a
       -0.006001944 -0.016604943 -0.00531007 0.0007577751
000040 71 ba e6 bc 22 8d b0 3b f7 47 a8 3b 00 99 28 bc
       -0.028165074 0.005387918 0.005135532 -0.010290384
000050 66 c3 0b 3b 26 7a c0 3b 22 ad 3c bc 02 40 54 3c
       0.0021326183 0.005873936 -0.011515887 0.012954714
000060 4c 6d 67 b9 43 98 3b bc 95 8d 9c 3c b4 27 c7 bb
       -0.00022070593 -0.011449876 0.01911048 -0.006077731
000070 75 6c db 3b 54 d2 e2 bb ec 47 f6 bb d2 7e ff 3a
       0.0066962787 -0.0069220457 -0.007515898 0.0019492751
000080 b4 ad f6 3b b3 80 27 3c 84 ad c6 3c 68 cf 49 3b
       0.0075280312 0.010223555 0.02425266 0.003079379
000090 40 b6 88 36 bb 17 11 3b 49 ab ac bc b1 d0 be bb
       4.0743325e-06 0.0022139389 -0.021077769 -0.005823218
0000a0 f8 52 7c bb b8 ed 91 bc 56 4d be 3c b5 41 89 3c
       -0.0038501602 -0.017813548 0.023230236 0.016754964
0000b0 b6 ce 57 bc 0b c1 05 3c 62 0b 17 bc bd 95 75 3a
       -0.013171842 0.008163701 -0.0092190225 0.0009368321
0000c0 6d dd 95 bc 10 aa f3 ba 50 35 37 3b 49 40 44 3c
       -0.01829406 -0.0018590111 0.002795536 0.011978217
0000d0 7e 28 20 bc 09 b4 88 bc db 92 ab 3b 0e 34 ca bb
       -0.009775279 -0.01668741 0.0052360124 -0.006170756
0000e0 71 4a 63 3c c5 03 d4 3c 7d bd 40 bc f1 54 14 3b
       0.013872729 0.025880704 -0.0117639275 0.0022633637
0000f0 38 87 ab bc 1e 82 95 bc b8 5d 44 3c 26 68 30 bc
       -0.0209385 -0.018250521 0.011985235 -0.010767018
000100 62 24 be bc 61 67 de bb 8e 2a c5 3b b8 35 a8 bc
       -0.023210708 -0.006787226 0.006017036 -0.020533428
000110 f7 7e 13 3d b5 e4 06 bc 40 9e 7a 3c 43 fa 13 bc
       0.036009755 -0.008233239 0.015296519 -0.009031835
000120 86 88 55 bb 98 4b 12 3c 6c 20 00 3b 20 a7 a0 3c
       -0.0032582595 0.008929156 0.0019550575 0.019610941
000130 91 74 2a bc 54 b6 c4 bb 66 a2 67 bc e0 9b f7 bb
       -0.010403768 -0.0060031805 -0.01413784 -0.0075564235
000140 d4 bb 2b bb a9 5d f8 ba 8b ad 94 bc 1e d7 26 bc
       -0.0026204484 -0.0018948811 -0.018149158 -0.010183124
000150 08 ae 68 bc cd c0 ad bc c4 e3 a8 bc ad 58 5a bc
       -0.0142016485 -0.021210099 -0.02061642 -0.013326806
000160 a6 93 b7 bb 2c 02 21 3c 34 34 5e bc 1f f8 d6 bb
       -0.005602318 0.009827178 -0.013562251 -0.00656034
000170 85 6e 81 bb 14 23 6e 3b e8 1d 71 3c 65 a3 9f bc
       -0.0039499425 0.0036336826 0.014716603 -0.019487092
000180 1a 39 fe 3b 9d 76 00 bc 7f 89 bf 3b f8 8c d4 bb
       0.007758272 -0.00784078 0.0058452482 -0.0064865313
000190 a9 a4 84 3b e4 22 f5 bb 3b b2 78 3b 84 65 9d bc
       0.0040479493 -0.007480966 0.003794803 -0.019213445
0001a0 83 d8 ee bb 62 c6 76 3c 4d 11 b2 bc b7 fe ce 3b
       -0.007288994 0.015061947 -0.021736765 0.0063169855
0001b0 42 6e 4a bb 7e f5 5d 3c 72 3c 66 3c e0 52 1a bb
       -0.0030888473 0.013547299 0.014052497 -0.0023547933
0001c0 8c 30 a2 bc e6 ac 1e bc 31 7f 0c bc 95 17 61 3c
       -0.01979854 -0.009684777 -0.008575247 0.013738533
0001d0 37 02 0c 3c 85 93 d1 3c 4d 11 27 3b e1 a6 7c bc
       0.00854545 0.025583038 0.002549249 -0.015420646
0001e0 0f d2 37 bc 6f 42 d2 bb 15 6c 47 3c 41 a0 a4 bb
       -0.011219515 -0.006416611 0.012171765 -0.0050239866
0001f0 c6 33 2c bd 41 7b b2 3a 5d 70 3d bc da a2 96 3b
       -0.042041562 0.0013617055 -0.011562434 0.00459705

arith.constant6 f4 [64]
000000 98 5f ed bc c3 e2 d4 bb 36 70 5d bd f7 2f 44 bd
       -0.028976247 -0.0064967587 -0.05406209 -0.047897305
000010 45 40 80 bd 0d 01 8e bd 43 4b 11 bc 46 04 cc bd
       -0.062622584 -0.06933794 -0.008868041 -0.099617526
000020 ec 70 d2 bb 4d a8 c6 bd f1 6c 5a 3c 25 b1 ba bd
       -0.0064221527 -0.097000696 0.013331638 -0.09115819
000030 ce 94 c3 bc ef e1 44 bd f0 81 0e bc b3 1b 62 bc
       -0.023874667 -0.04806703 -0.008697972 -0.013800549
000040 ab 88 d3 bb 0f 2e 64 bd 39 e7 a0 bc bb 43 b9 3c
       -0.006455501 -0.055707987 -0.019641506 0.022615304
000050 bb 8c c8 bc 2f e1 f7 bc ad 0a fa 3b c2 17 62 bd
       -0.024481168 -0.030258743 0.007630667 -0.05519844
000060 3b a8 30 bd 05 29 38 bd 96 86 7a bd fb 68 52 bc
       -0.043129187 -0.044960994 -0.061163507 -0.012842412
000070 e7 99 21 3c 5d 56 98 bd ed f6 69 bd 7a 86 47 bd
       0.009863353 -0.074383475 -0.057120252 -0.04871223
000080 88 4d 9b bc 0b c3 17 bd 76 b7 cc 3c 21 7d 56 bd
       -0.018957868 -0.03705124 0.024989825 -0.052365426
000090 ff c4 b9 bc e1 9d f1 bc ef 90 09 3c f5 13 7e bc
       -0.022676943 -0.029494228 0.008396371 -0.015507688
0000a0 23 e5 16 bd fa dc fb bc 77 07 8f bd 65 8d f6 3b
       -0.036839616 -0.030745018 -0.06983846 0.0075241798
0000b0 9e e8 de bb 72 61 23 bd 8a aa db bc b7 da f1 bc
       -0.0068026325 -0.039887853 -0.026814718 -0.029523237
0000c0 2a 41 f0 bd a6 0c e8 bd 66 eb f3 bc 8c 38 d0 3c
       -0.11731179 -0.113305375 -0.029775333 0.025417589
0000d0 fd 51 fa 3b 55 49 2c bd 40 9b 9c bc 7e 04 4b bc
       0.0076391683 -0.042062122 -0.019116998 -0.012391208
0000e0 c6 13 eb bc fe be 89 bc d7 03 35 bd 9f 82 1a bd
       -0.028695952 -0.016814705 -0.044193115 -0.037722226
0000f0 89 cf f8 3a 4d 86 84 bd e3 d6 86 bd ba 97 41 bc
       0.0018982749 -0.06470928 -0.06583955 -0.01181596

arith.constant7 f4 [10]
000000 07 7b b1 bb 0f 60 23 3c 7c 53 9f 3c aa 26 0c bd
       -0.0054162773 0.009971633 0.019448988 -0.03421656
000010 ce 4d 13 bc ec d0 53 3b 1d 98 9d bc e5 03 91 3b
       -0.008990718 0.0032320572 -0.019237572 0.004425513
000020 1b ac f9 3c 8d 43 e6 bc
       0.030477574 -0.028108383

tfl.pseudo_qconst i1 [64, 3, 3, 32]
000000 d0 f9 d4 ee 21 0a dc 06 e9 f9 0e 0b 12 0f fd ca
       -48 -7 -44 -18 33 10 -36 6 -23 -7 14 11 18 15 -3 -54
000010 0a f0 e7 ed f9 15 e6 ce e7 d1 f8 fd ca 0c 1b ca
       10 -16 -25 -19 -7 21 -26 -50 -25 -47 -8 -3 -54 12 27 -54
000020 01 e9 e7 0c e9 c5 f4 f9 f2 1a 26 1b 0f c5 34 05
       1 -23 -25 12 -23 -59 -12 -7 -14 26 38 27 15 -59 52 5
000030 f5 d8 ee ed cd 16 f1 0e cd 13 39 0e f7 f6 e9 01
       -11 -40 -18 -19 -51 22 -15 14 -51 19 57 14 -9 -10 -23 1
000040 0a ff 0e bf db bf e6 c9 d7 0a 21 f0 14 ea 12 02
       10 -1 14 -65 -37 -65 -26 -55 -41 10 33 -16 20 -22 18 2
000050 18 f6 e3 d7 fd 1e ee db d1 25 0f e2 0e 9c 0d 0d
       24 -10 -29 -41 -3 30 -18 -37 -47 37 15 -30 14 -100 13 13
000060 08 01 10 3b 1c 20 cb 26 40 05 da 28 fe 23 e4 f8
       8 1 16 59 28 32 -53 38 64 5 -38 40 -2 35 -28 -8
000070 fb 1a 0b 18 09 f5 ef db 06 fd e9 1c 20 0d 1e ef
       -5 26 11 24 9 -11 -17 -37 6 -3 -23 28 32 13 30 -17
000080 de db f3 1e d2 10 bf ef 1e 22 0a 15 29 b6 16 1a
       -34 -37 -13 30 -46 16 -65 -17 30 34 10 21 41 -74 22 26
000090 f9 0d 09 0e 0c e2 e4 f7 0a ff 2b df 17 17 18 df
       -7 13 9 14 12 -30 -28 -9 10 -1 43 -33 23 23 24 -33
0000a0 1a cd 1c eb 81 95 8e c3 ca f1 1b da f3 d7 2d f9
       26 -51 28 -21 -127 -107 -114 -61 -54 -15 27 -38 -13 -41 45 -7
0000b0 f5 1c cb d4 ed 19 dd 1d d7 f1 02 f9 26 d6 cb 16
       -11 28 -53 -44 -19 25 -35 29 -41 -15 2 -7 38 -42 -53 22
0000c0 f0 3d f5 ec 5a d2 3b e3 11 d7 bd da 00 36 c3 d8
       -16 61 -11 -20 90 -46 59 -29 17 -41 -67 -38 0 54 -61 -40
0000d0 fa e7 cc 09 28 d6 e1 0b 03 10 10 03 1a 08 06 f4
       -6 -25 -52 9 40 -42 -31 11 3 16 16 3 26 8 6 -12
0000e0 04 38 0e 06 e9 e2 25 bb 0f ea e3 f1 e5 0d 1f 0c
       4 56 14 6 -23 -30 37 -69 15 -22 -29 -15 -27 13 31 12
0000f0 ec f5 c9 10 d7 d9 cc 14 dc f3 1c 2c f3 e9 e0 dc
       -20 -11 -55 16 -41 -39 -52 20 -36 -13 28 44 -13 -23 -32 -36

tfl.pseudo_qconst1 i1 [10, 128]
000000 ba 2f 0d 44 1f c9 1b 9b b1 3d 25 10 34 32 41 47
       -70 47 13 68 31 -55 27 -101 -79 61 37 16 52 50 65 71
000010 16 48 39 d3 e2 e3 a9 3b e3 ea b5 1e c2 9f bf 3f
       22 72 57 -45 -30 -29 -87 59 -29 -22 -75 30 -62 -97 -65 63
000020 1d d0 34 ad a6 3b 1e 06 e8 1a 40 18 e6 29 51 2e
       29 -48 52 -83 -90 59 30 6 -24 26 64 24 -26 41 81 46
000030 e2 ec 9c 8b c4 f6 1a 9c 0c a8 a3 4d fa c6 31 2c
       -30 -20 -100 -117 -60 -10 26 -100 12 -88 -93 77 -6 -58 49 44
000040 87 e8 08 e5 31 aa 39 d1 c6 d2 48 19 1e 32 91 24
       -121 -24 8 -27 49 -86 57 -47 -58 -46 72 25 30 50 -111 36
000050 c3 a6 57 d7 cc bf fc e1 17 32 ae a6 f7 00 09 08
       -61 -90 87 -41 -52 -65 -4 -31 23 50 -82 -90 -9 0 9 8
000060 d4 1b 3f 0e a3 04 34 e6 1d dc 18 06 de 81 f8 51
       -44 27 63 14 -93 4 52 -26 29 -36 24 6 -34 -127 -8 81
000070 f5 f3 25 41 3e 20 d1 cf 93 3c 05 15 31 ff 2e d3
       -11 -13 37 65 62 32 -47 -49 -109 60 5 21 49 -1 46 -45
000080 49 c1 02 ca 29 28 42 2b f1 07 c4 d2 df b0 bc 81
       73 -63 2 -54 41 40 66 43 -15 7 -60 -46 -33 -80 -68 -127
000090 b9 d6 28 88 2d ba ac 5e 51 8c 1e b1 5f 3d 2c 2b
       -71 -42 40 -120 45 -70 -84 94 81 -116 30 -79 95 61 44 43
0000a0 52 9f 56 0d 15 53 20 23 f4 df 27 33 d8 a3 d6 ba
       82 -97 86 13 21 83 32 35 -12 -33 39 51 -40 -93 -42 -70
0000b0 08 1f 15 38 64 43 d1 c0 52 28 8d e6 ae 43 29 a9
       8 31 21 56 100 67 -47 -64 82 40 -115 -26 -82 67 41 -87
0000c0 a9 8a 14 ad 29 36 3d 8a 13 1a ad 4d 3b c5 38 0e
       -87 -118 20 -83 41 54 61 -118 19 26 -83 77 59 -59 56 14
0000d0 e9 53 01 b9 ab cf cf aa 50 98 23 cb 34 b1 01 f3
       -23 83 1 -71 -85 -49 -49 -86 80 -104 35 -53 52 -79 1 -13
0000e0 1c 4f a0 ee a4 a5 9f aa f2 57 89 57 bf 2b 22 c5
       28 79 -96 -18 -92 -91 -97 -86 -14 87 -119 87 -65 43 34 -59
0000f0 99 db b9 fa 8a 40 b0 d0 66 af 67 b6 e3 18 55 b9
       -103 -37 -71 -6 -118 64 -80 -48 102 -81 103 -74 -29 24 85 -71

tfl.pseudo_qconst2 i1 [128, 2304]
000000 f5 dc 1b 02 05 34 3c f7 43 f7 22 f4 0d 0d ea e9
       -11 -36 27 2 5 52 60 -9 67 -9 34 -12 13 13 -22 -23
000010 17 13 06 f0 2f 10 10 ec 0e 0e 1d 28 f5 05 ee 24
       23 19 6 -16 47 16 16 -20 14 14 29 40 -11 5 -18 36
000020 2c ea 08 27 fb 08 1b 32 08 19 f8 01 bd 1a dc e0
       44 -22 8 39 -5 8 27 50 8 25 -8 1 -67 26 -36 -32
000030 28 28 30 12 27 09 2d 0f 2d 1d 28 3d 07 54 34 ef
       40 40 48 18 39 9 45 15 45 29 40 61 7 84 52 -17
000040 06 00 2c f4 0e ec 0a fa f3 dc 08 be da 1f 18 ef
       6 0 44 -12 14 -20 10 -6 -13 -36 8 -66 -38 31 24 -17
000050 04 13 ff eb 10 05 40 f3 f8 ff 0c 07 d1 16 05 e9
       4 19 -1 -21 16 5 64 -13 -8 -1 12 7 -47 22 5 -23
000060 ee 17 cc 02 1a fe 24 04 11 f8 e1 ee 03 0b ed 03
       -18 23 -52 2 26 -2 36 4 17 -8 -31 -18 3 11 -19 3
000070 13 11 0a 30 34 13 f3 0f e0 e6 23 e1 12 11 18 08
       19 17 10 48 52 19 -13 15 -32 -26 35 -31 18 17 24 8
000080 01 f0 50 fd 05 d6 0b dd cc 01 31 ec dd 12 16 f6
       1 -16 80 -3 5 -42 11 -35 -52 1 49 -20 -35 18 22 -10
000090 2f e7 f2 12 08 02 1c 1e f3 19 1d f8 f9 16 e7 f6
       47 -25 -14 18 8 2 28 30 -13 25 29 -8 -7 22 -25 -10
0000a0 ef 01 d8 0e df 16 11 1a e2 12 e9 d1 1a 07 ed f7
       -17 1 -40 14 -33 22 17 26 -30 18 -23 -47 26 7 -19 -9
0000b0 02 0c ea 24 0b 25 0f 08 07 05 f2 fd 14 f1 e6 22
       2 12 -22 36 11 37 15 8 7 5 -14 -3 20 -15 -26 34
0000c0 10 eb 1b 06 f5 24 3f 20 fe f8 5b ec fa e4 0d 16
       16 -21 27 6 -11 36 63 32 -2 -8 91 -20 -6 -28 13 22
0000d0 08 f8 e0 0b 05 f2 16 3a 17 13 22 ef 08 22 fd ee
       8 -8 -32 11 5 -14 22 58 23 19 34 -17 8 34 -3 -18
0000e0 14 19 cd 09 48 e8 cf f1 f3 18 f3 2b 2e f6 e7 15
       20 25 -51 9 72 -24 -49 -15 -13 24 -13 43 46 -10 -25 21
0000f0 fc 14 1e 2c f5 35 f1 08 00 02 f4 14 0e f4 d2 4a
       -4 20 30 44 -11 53 -15 8 0 2 -12 20 14 -12 -46 74
